GraduationProject/Assets/Collaboration/ML-Agents/RollerBall.onnx (onnx, 76122 bytes, 7 tensors)

network_body._body_endoder.seq_layers.0.weight f4 [128, 8]
000000 f5 4c 8b 3e ac 72 15 bf eb 9f 1c bf 3d 3f 34 3f
       0.2720715 -0.583781 -0.61181515 0.70408994
000010 43 69 e9 be b7 bb 6b be eb 01 96 3d 35 44 94 bd
       -0.4558812 -0.23020826 0.073245846 -0.07239572
000020 5a 25 5a 3f dc 9d 61 be c8 48 d2 3d f1 f2 09 3e
       0.85213244 -0.22032875 0.10267788 0.13471581
000030 aa 51 08 3f 1f 2d 06 3e e0 10 4d 3e e2 b8 49 3f
       0.5324961 0.1310315 0.20025969 0.78797734
000040 6c c4 af bd 77 c0 03 3f 6d 64 f4 be af 7c 53 3e
       -0.085823864 0.51465553 -0.4773287 0.20653032
000050 10 4f b9 3e 0c bb bb be c7 88 05 3f b7 76 21 3f
       0.36193132 -0.36666143 0.5216183 0.6307177
000060 17 84 08 3e 57 4c d3 be 38 6b 12 be 57 f7 61 3f
       0.13331638 -0.4126918 -0.14298713 0.88268036
000070 de 8b a6 3e 3e d0 78 bd 0e f0 05 bf ac ea da be
       0.32528585 -0.06074547 -0.5231942 -0.42757165
000080 ef 65 c3 3e 21 89 f2 3e 03 4d b8 bd 1a 56 03 be
       0.38163707 0.47370246 -0.08999064 -0.12825814
000090 3c f4 f3 3d 13 47 14 3f 03 88 90 3e e0 55 d0 3d
       0.119118184 0.5792095 0.2822877 0.10172629
0000a0 41 80 6c 3e 38 e9 a1 3e 42 5e c0 3d f8 01 3b be
       0.230958 0.31623244 0.09392978 -0.1826247
0000b0 30 18 48 3e d6 a3 9b 3e 95 d0 89 3e 8a 8b ad 3d
       0.19540477 0.30398434 0.26916948 0.084738806
0000c0 c9 0f 31 3e d0 62 95 3e e6 ca 8f 3e d0 81 95 bd
       0.17291178 0.2917695 0.28084487 -0.073001504
0000d0 4c a5 7e be 74 1a c5 3e 5e ca 34 be 55 4c d7 3e
       -0.24867743 0.38496745 -0.17655322 0.42050424
0000e0 5d 06 98 be 5d d8 b9 3e 0b 46 bd 3e 7a f1 6a be
       -0.29692355 0.36297885 0.369675 -0.22943678
0000f0 81 67 89 3d d2 a7 e3 be 30 d5 6e 3e f5 5e bb bb
       0.06709195 -0.44463974 0.23323512 -0.005718107
000100 ea d7 04 bf d4 40 2d be 31 3d 39 3f ab 6e 80 3e
       -0.5189196 -0.16919261 0.72358996 0.25084433
000110 5a f6 c4 3e fa 11 0f 3f 88 13 c2 3d 1c f0 51 bf
       0.384692 0.55886805 0.094763815 -0.82007
000120 66 93 c7 3c 8e cc df bd a4 6f 12 bc 63 33 1a be
       0.024362277 -0.109276876 -0.00893775 -0.15058665
000130 01 52 0d bf ec 9d bb be 28 4f 00 bf 3a af 97 be
       -0.55203253 -0.36643922 -0.5012078 -0.29625875
000140 da 91 f5 be 29 02 e4 be bb 09 c6 3b ed a6 75 be
       -0.47962838 -0.44532898 0.0060436404 -0.23989458
000150 8c 48 93 be da b7 9c 3d 89 fa 57 bd 9a 21 e7 be
       -0.28766286 0.076522544 -0.052729163 -0.45142823
000160 32 fd 07 bf 24 d4 b4 3e 40 ed 11 be 8a 81 c1 3d
       -0.5312072 0.353181 -0.1425066 0.09448536
000170 a1 1b 8f be 72 2e 1f 3f c7 00 9c 3e 78 b2 3b 3d
       -0.27950767 0.62180245 0.30469343 0.045824498
000180 fe b5 ba 3e 94 69 33 3e 89 dd 33 3f c6 ba 23 3d
       0.36466974 0.17520744 0.7025991 0.039973043
000190 11 c9 75 be 2a 85 4a bf 6b 2d 86 3d 25 0f fc be
       -0.24002482 -0.7910944 0.065516315 -0.49230304
0001a0 5a d8 a8 3e fe a1 93 3e 34 46 36 be 2a 24 c3 3e
       0.32977563 0.28834528 -0.17800218 0.38113528
0001b0 06 51 71 be 22 9c 85 3e 26 1e 1b bf ac 73 16 3e
       -0.23566064 0.26095682 -0.6059288 0.14692563
0001c0 65 f9 51 3e 5d 06 9e 3e 10 df 08 3f 81 d5 ee be
       0.20505293 0.3086423 0.53465366 -0.46647266
0001d0 4a 41 a4 3e 50 8d ad be 76 01 a4 be 1b 6b 4c 3d
       0.32081062 -0.33896875 -0.32032365 0.04990683
0001e0 36 35 20 be 7e e4 94 be 92 da 76 bf f6 0f ae 3e
       -0.15645298 -0.29080576 -0.9642726 0.33996552
0001f0 24 b2 9d 3d b3 c4 2f be 01 63 0f 3f eb 02 0c 3f
       0.07699993 -0.17164879 0.5601044 0.5469195
000200 44 66 58 bf 7b e9 4c 3d d9 80 43 3f 05 bb 2c 3d
       -0.84531045 0.05002735 0.7636848 0.042170543
000210 9f 74 42 3f 65 fd 9e 3d 5d c7 1c 3f 71 e8 e4 be
       0.759592 0.07763175 0.61241704 -0.4470859
000220 e5 6a b5 bd dd 05 e9 be a7 4d a7 3c e8 1d 88 bf
       -0.08858279 -0.45512286 0.02042277 -1.0634127
000230 24 fd b6 3d 2e 8c ae bd a9 22 45 3e 3d bc bd be
       0.089350015 -0.08522831 0.19251503 -0.37057677
000240 77 a6 f4 be d3 dd 26 bd ce e2 1e 3f 53 bd 38 3e
       -0.47783253 -0.04073889 0.62064826 0.18040971
000250 96 e5 28 3d 91 74 ef 3d 75 cf 71 3e d2 15 15 3d
       0.041234575 0.11692155 0.23614295 0.036397763
000260 5a 60 c4 be 30 80 26 3d e6 f8 0e 3f 0c aa 81 bd
       -0.3835476 0.040649593 0.5584854 -0.06331262
000270 e2 25 e3 bd 40 c1 34 3e fc f2 31 bf da 84 35 3e
       -0.1109121 0.17651844 -0.6951139 0.1772646
000280 70 24 b1 3d 98 63 03 bf 68 ce 88 bd ca 67 d5 bd
       0.08649528 -0.51323843 -0.06679994 -0.10420187
000290 3c b1 c7 3e 4d 70 05 bf fe af d8 3e 5c 07 60 bf
       0.39002407 -0.5212448 0.4232177 -0.8751123
0002a0 ba e2 7c 3d ae 8f 2f 3f 0c 56 02 bf cf 0f a6 be
       0.06173966 0.6857861 -0.5091255 -0.32433936
0002b0 7c 69 de 3e aa d2 58 3e e4 ed 4b 3d 51 80 15 bd
       0.43439853 0.21174112 0.049787417 -0.036499325
0002c0 32 65 52 3e 83 d0 49 3f 37 15 0e 3f c2 d8 d6 3e
       0.20546415 0.7883379 0.5550112 0.41962248
0002d0 97 a2 fa be 21 d7 35 3d 9a 14 a8 be 38 dc 16 3e
       -0.4895217 0.044394616 -0.32828218 0.14732444
0002e0 ca c7 26 be 32 e6 be 3c cf 0a aa 3d f4 20 ab 3d
       -0.16287151 0.023303125 0.08302843 0.08355895
0002f0 e9 88 17 bf 2f df 36 3e 22 7d 1c bc 55 a0 96 be
       -0.59193283 0.17858575 -0.009551318 -0.294192
000300 de 09 2f 3f f8 75 78 3e e9 25 ca be e3 a7 a4 3e
       0.6837443 0.24263752 -0.39482048 0.32159337
000310 88 84 2f bf 21 46 5a be 86 2f 0d bf a0 df fd be
       -0.685616 -0.21315815 -0.5515064 -0.49584675
000320 71 04 5a 3d f2 59 1d bf 99 51 ac be 89 a5 6f bd
       0.053226892 -0.6146537 -0.33656004 -0.058507476
000330 bd be c2 bd 09 3e dc bd 97 4f 18 3e 31 62 b8 3c
       -0.09509037 -0.1075402 0.14874111 0.022507759
000340 74 b7 d4 bb a2 5b ad 3e d5 83 83 3c b5 aa 69 bf
       -0.006491596 0.33858973 0.016054073 -0.91276103
000350 f4 d2 cc 3e 48 ed 32 3f d3 9d c5 3d 18 a5 b4 3d
       0.40004694 0.6989331 0.09649243 0.08820552
000360 d7 13 cf bb cc e7 d0 be a2 a6 cc 3e 06 67 9e 3e
       -0.0063195038 -0.40801847 0.3997088 0.30937976
000370 e7 e9 82 3e 20 1c 5e bb 6b ea a0 3e f6 bd 46 bf
       0.25569078 -0.0033891276 0.31428847 -0.7763361
000380 8b ef 36 3f 82 6d fc bd 83 9f 84 3e ab 71 43 bf
       0.71459264 -0.123255745 0.25902948 -0.7634532
000390 1b be 18 be 6f 02 79 3e 0e 0b 27 bf 39 28 05 3e
       -0.1491627 0.24317335 -0.65251243 0.13003625
0003a0 25 a9 4d 3c 93 4d 43 be b1 8d d9 bc c5 2d a0 3d
       0.012552534 -0.19072561 -0.026556822 0.0782123
0003b0 f1 42 a6 bb 58 83 d4 bc 36 3a 30 3f a9 41 17 3e
       -0.005073898 -0.025941536 0.6883882 0.14771141
0003c0 9b 04 29 3e 42 9c ed be 03 9e d1 be 81 2e 23 3f
       0.16505663 -0.46408278 -0.40940866 0.63742834
0003d0 19 63 00 be bb 62 85 3e ca 6d 13 be 52 4d a8 3e
       -0.12537803 0.26051888 -0.1439735 0.3287149
0003e0 24 ae 40 3d d8 55 f0 bd 1b e7 77 bd 12 e4 9c 3d
       0.047041073 -0.117351234 -0.060523134 0.076606885
0003f0 f0 f2 0f 3e 8f ac 61 be 78 b7 88 bc b7 e1 3a bd
       0.14057517 -0.22038482 -0.016689047 -0.045625415

network_body._body_endoder.seq_layers.0.bias f4 [128]
000000 f8 3a de 3c 1b 13 4f 3b 4a a1 6a 3d d8 08 18 bd
       0.027127728 0.003159708 0.057282723 -0.03711781
000010 26 4d 7a 3d 52 ec 1f 3c d3 a6 1f 3c db ab 65 bc
       0.06110873 0.009760933 0.009744364 -0.014018024
000020 1b a5 33 3d b8 74 e0 bd c9 50 e9 bd 4a 7f 9a 3c
       0.04385863 -0.10959762 -0.11392362 0.018859524
000030 b8 c0 8e 3d a8 41 b7 bc 2d 9e 6f 3d 79 14 4f 3d
       0.06970352 -0.022370175 0.058500458 0.050556634
000040 cd 28 31 3d d9 46 54 bd cb d4 78 3c 19 96 c9 bd
       0.0432518 -0.051825378 0.015187453 -0.09843082
000050 27 40 0d bc 5b f0 8f 3d 08 1b 65 3c 38 4d 32 bc
       -0.008621252 0.07028266 0.0139834955 -0.010882668
000060 da 03 70 bb 50 dd 92 bd 9a ad a1 3d 8e fc d3 bc
       -0.003662339 -0.07171118 0.0789444 -0.025877263
000070 c4 ba be 3d c5 ad 00 3d ee 24 df 3c 55 be 38 bd
       0.093129665 0.03141572 0.02723929 -0.04510339
000080 d5 e2 cc 3d 54 60 96 bd 21 c1 c4 bc 48 95 99 3d
       0.10004202 -0.07342592 -0.024017872 0.07499176
000090 05 89 44 3c 25 d3 a9 3b 36 7c 2c 3b a2 ed 62 bd
       0.011995559 0.005182641 0.0026319153 -0.055402406
0000a0 aa d4 0d bd 58 3a 1c 3d 88 a8 17 3d 7f 8b d1 bc
       -0.03462664 0.03814158 0.03702596 -0.025579212
0000b0 1b de 8c bd 84 fa 58 bd 94 67 aa bd e0 13 8e 3d
       -0.06878301 -0.052973285 -0.08320537 0.069373846
0000c0 32 03 1f 3d d6 98 80 3d 2d 0f 4a 3d 1b 95 2f 3c
       0.038821407 0.06279151 0.04933088 0.010716702
0000d0 c9 a9 8f bc 73 c2 e6 bc 07 ec 5b bd 95 0f 1f bd
       -0.017537015 -0.028168892 -0.05369189 -0.03883322
0000e0 56 1b 8a 3d 0e d6 e1 3c 6b 3e 62 bd 5b d4 b5 3d
       0.06743495 0.02756789 -0.055235308 0.08878394
0000f0 f9 45 9c bd e5 4e 17 3d 2e bf b8 bc 5c 06 5c 3d
       -0.07630534 0.036940474 -0.0225521 0.053717002
000100 72 39 51 3d 7d 0b 97 3d 7b 96 86 bc 0c f7 fb bc
       0.051080175 0.07375238 -0.016429177 -0.03075745
000110 2c 9a 3b bb 07 e6 0f 3d ee 97 13 3d 63 c9 30 3c
       -0.002862583 0.03513148 0.036033563 0.010790202
000120 74 a4 f3 3c 47 6d 71 3c 66 83 6f 3c 82 b1 0e bd
       0.029741503 0.014735526 0.01461873 -0.034837253
000130 a8 c8 b2 ba d0 0e e4 3c a8 e5 af bc b1 3f 4f bc
       -0.0013640122 0.027839094 -0.021471813 -0.012649463
000140 0e 53 44 bc 1f 4a ae bd d8 af 8f bb c8 cf d6 3b
       -0.011982692 -0.08510231 -0.004384976 0.006555531
000150 43 9f 1d bd fa 53 96 bc 35 9c 2c bc 2f fd dd 3d
       -0.038481962 -0.01835059 -0.0105352895 0.108393066
000160 54 59 91 3c 1c 95 07 3c ca ac b2 bb c3 1c 24 3d
       0.01774279 0.008275297 -0.005452727 0.04006649
000170 55 f2 43 3d cb 01 a0 bc df f8 66 3d ab 9f 0f 3d
       0.047838528 -0.019532105 0.056389686 0.03506438
000180 7f f7 51 b8 c7 3d 22 3d 1f 01 72 bb 2c 1e 22 3d
       -5.005998e-05 0.039609697 -0.0036926938 0.039579555
000190 94 8e 45 bc 29 e4 71 3d 5e 04 23 bd 18 7b 59 bc
       -0.012057919 0.05905548 -0.039799087 -0.013273977
0001a0 67 1a b4 bd a7 19 8f bd 5f b8 3b 3d 72 31 14 3d
       -0.08794098 -0.06987315 0.045830127 0.036179967
0001b0 44 94 8c bd 81 00 90 3c 0f 1f 5a 3d 99 5c 2e 3d
       -0.06864217 0.017578365 0.053252276 0.042568777
0001c0 02 9b 85 bc 06 79 5c bd 56 29 e8 36 a1 fd 84 3d
       -0.016309265 -0.053826354 6.918951e-06 0.064936884
0001d0 b8 ec d5 bb 49 9a 98 3c dd cf 9b 3b 83 f7 8b bd
       -0.006528463 0.018628256 0.004755004 -0.068343185
0001e0 ac 19 1c 3c 45 41 90 bd a5 32 8e 3d ef e8 48 3d
       0.009527605 -0.07043699 0.069432534 0.049050268
0001f0 f4 d2 56 b8 12 d6 63 bc 68 95 55 bd 6b d8 04 3c
       -5.121804e-05 -0.013906019 -0.052144438 0.008108239

network_body._body_endoder.seq_layers.2.weight f4 [128, 128]
000000 84 4d b5 3d d2 9c 85 bd 2c 33 de bd 21 fc 8f 3c
       0.088526756 -0.06524052 -0.10849604 0.01757628
000010 13 ba da bd d5 d3 f7 bd 50 28 c6 bc 30 5d 1b 3e
       -0.10680022 -0.12100951 -0.024189144 0.15172267
000020 39 a1 95 bd 99 4b e1 3c 56 45 f6 bc a0 e4 33 bd
       -0.073061414 0.027501868 -0.030062359 -0.043919206
000030 ec f5 2a bd ca 7a a3 bc 79 75 3b 3e 3a 24 4e be
       -0.041738436 -0.019956011 0.18306531 -0.20131007
000040 f2 c9 00 be 25 32 e2 3d ca 25 c0 bc ba a3 15 bc
       -0.12577036 0.110447206 -0.02345552 -0.009133274
000050 0e 2b 76 bd a8 50 94 3d 74 a5 c4 3d fc 20 e0 bd
       -0.060099654 0.072419465 0.0960187 -0.10943791
000060 f8 fc 77 3d 99 1d e6 bc 87 44 ff bc f3 82 03 bd
       0.060543984 -0.028090285 -0.031160606 -0.032107305
000070 c8 f8 19 3e ce 6c 1d 3d fa 39 49 3d ac dd 29 3e
       0.15036309 0.038433842 0.049127556 0.16588467
000080 f4 41 17 be f0 0f 90 3d 88 89 30 be a2 ff f5 3d
       -0.14771253 0.0703429 -0.17239964 0.12011649
000090 61 5e e8 bb 18 a7 5a 38 3c 9b 32 bd b5 93 9a 3d
       -0.007091329 5.213087e-05 -0.043605074 0.07547704
0000a0 d6 0e 1d 3d a9 00 cc bd 17 bc a3 bc 79 7e 1d be
       0.038344227 -0.099610634 -0.01998715 -0.15380277
0000b0 eb d8 0e be be 68 13 3e 07 b1 2c 3d 76 c0 03 3e
       -0.13949935 0.14395425 0.042161014 0.12866387
0000c0 12 d3 94 bd 73 04 24 be 72 d4 63 3d e4 9c 80 3d
       -0.07266821 -0.16017322 0.055622526 0.062799245
0000d0 2a 44 de bd 8b 66 42 be f9 83 f7 3d f9 83 c1 bd
       -0.10852845 -0.1898443 0.12085719 -0.09449
0000e0 cb 46 fa 3d d8 b4 59 bd 54 53 3a be be 7a 49 3d
       0.12220534 -0.05315098 -0.1819585 0.04918932
0000f0 93 13 c8 bd 09 d4 7e bd 6e 56 50 3e 29 fa c1 bc
       -0.097693585 -0.06221393 0.2034547 -0.023678856
000100 83 8c 43 bc 86 2b 35 be 96 7f 15 be bd e4 e2 3d
       -0.011935356 -0.17692384 -0.14599451 0.110787846
000110 79 58 c3 3d b3 9b a8 bd f1 c9 4d be f4 c3 1d 3e
       0.09538359 -0.08232822 -0.20096566 0.15406781
000120 25 60 a1 3d 82 18 1e be 4c 32 04 3e 79 e1 07 3e
       0.07879666 -0.15439036 0.12909812 0.13269605
000130 42 12 8a bd e8 d9 d2 3d ef bb b1 3d 72 48 83 bc
       -0.06741764 0.102954686 0.086784236 -0.016025756
000140 a5 eb 87 3e 68 77 d9 bc d5 2a c1 bc 83 d0 3e 3d
       0.2654697 -0.026546195 -0.023579994 0.04658557
000150 37 60 d3 bd 96 45 0b be 1a ca 0f 3e 2a c4 9f 3d
       -0.10321086 -0.13600764 0.1404194 0.07801087
000160 5a 9c 02 bc c0 54 b4 3c 9d 27 ef bd da 46 be bd
       -0.007971847 0.022013068 -0.116774775 -0.092908576
000170 44 e6 b3 3c 0a a8 ed bc 5f 82 af 3d 8d 69 02 bd
       0.021960385 -0.029010791 0.08569788 -0.031838942
000180 81 bf f5 bc 4f 3a fb 3d cb 19 12 3e fd dd 0e 3e
       -0.029998543 0.12266981 0.14267652 0.1395187
000190 48 e1 7c bd d6 04 cc bd 75 01 ce bd 9b 43 ec 3d
       -0.061738282 -0.0996186 -0.10058872 0.11536332
0001a0 bd 7d 51 3e 28 1e 03 3d db 73 44 3e 86 8c 2e bd
       0.20458122 0.03201118 0.1918482 -0.042614482
0001b0 55 c6 a6 bd 15 6e c8 bc 06 9f bb bd bc 91 d7 bd
       -0.081432976 -0.024466554 -0.09161191 -0.105258435
0001c0 c2 2b 29 bd 59 50 2f bd 37 27 b3 bd d6 22 d4 3d
       -0.041301496 -0.042801235 -0.08747714 0.10358207
0001d0 57 8d b4 bc dc b7 90 bd 40 69 c1 3d 59 07 4e be
       -0.022040052 -0.070663184 0.09443903 -0.2011999
0001e0 74 2c 55 bb 20 72 55 3e 4f 00 f7 bb 3a b9 99 bc
       -0.0032527717 0.20844316 -0.0075378786 -0.01876508
0001f0 93 a3 95 3d 4b 9e 15 3e 66 b6 73 3b e5 02 8b 3d
       0.0730659 0.14611165 0.0037187575 0.067876615
000200 00 45 3d 3c ab d9 ad 3d 00 24 0c bd 3a 3b 4f bd
       0.011552095 0.084887825 -0.03421402 -0.050593592
000210 95 c7 44 3c 55 6a 5b be 33 d6 06 be bf e0 be bc
       0.012010475 -0.21427281 -0.13167648 -0.023300527
000220 52 35 02 3d 72 87 a3 3d 6e 44 62 ba 5c 78 4f bd
       0.03178913 0.079848185 -0.00086314126 -0.050651893
000230 f9 30 a3 bd 2c f4 09 3c df 33 b8 bc 69 a0 41 3d
       -0.07968325 0.0084200315 -0.022485672 0.04727212
000240 11 6c 33 3d ce 60 0e 3d fb de 2f bd 8e a4 dc bc
       0.043804232 0.03476029 -0.04293726 -0.026933935
000250 77 6a 00 3d 04 4a 71 3d 2e 4c 05 be bd 28 64 bd
       0.031351533 0.058908477 -0.13017341 -0.055702914
000260 5c df 18 be 48 01 a8 3d 17 ce f5 3d fc 42 a0 bd
       -0.14928955 0.082033694 0.12002199 -0.07825276
000270 10 97 8f 3d 0d e3 db bd 25 7b 31 3d ca c3 8a bc
       0.07011235 -0.10736666 0.04333033 -0.016939063
000280 ac ab de 3d c3 af 22 be 3a a3 2c be bc de 28 bd
       0.108725876 -0.1588736 -0.16859141 -0.04122804
000290 d4 fe 50 be 03 7c 06 3e e3 24 7e 3d d2 79 24 bd
       -0.20409709 0.13133244 0.062046897 -0.04015524
0002a0 40 ac c6 bd 7c 2d 3e 3e fe 4f 1a bc 29 4d 81 3c
       -0.09700823 0.18572038 -0.009418486 0.015783863
0002b0 af a4 85 3d 6d 4a 54 3c ef 80 62 3b d9 ad 44 be
       0.065255515 0.012957198 0.0034561714 -0.19206943
0002c0 4f 6c cc bc c9 83 18 bd 5b c1 fb 3d 6f 9a 8d bd
       -0.02495399 -0.037235055 0.12292739 -0.069142215
0002d0 a2 36 31 be c0 49 42 3d 53 c0 ae bd f9 1e 17 be
       -0.17305997 0.047433615 -0.08532777 -0.14757909
0002e0 5f 66 e5 bd e1 c0 8b bd 54 20 d5 3d 0a 15 16 3e
       -0.11201166 -0.06823898 0.10406557 0.14656463
0002f0 72 b1 84 bc f9 3c 1f be c1 c8 81 3d 2f d1 2f bd
       -0.016197894 -0.15550603 0.06337119 -0.042924102
000300 5b 48 86 bd cd be 23 bd 74 4a 8f 3c b0 0c 07 3e
       -0.065567695 -0.039976884 0.017491557 0.13188434
000310 be b4 33 3d b8 81 6d 3d 39 67 bd 3d e1 c9 1a 3d
       0.04387354 0.057985038 0.09248204 0.037790183
000320 88 c0 81 39 31 b8 1f be 75 f1 6d bd 95 ce 3e 3b
       0.00024748244 -0.15597607 -0.0580916 0.0029114832
000330 75 d3 fc 3d aa 1d 83 bc 39 84 9f 3d 66 5a 68 bd
       0.1234502 -0.016005356 0.07788891 -0.056726836
000340 4b a9 1a be 5a 8f 7a bd ad 30 b4 3d 1c 44 85 3d
       -0.15103643 -0.061171867 0.08798347 0.065071315
000350 73 58 2b bd b3 a2 b5 bb 98 e8 54 bc 1c 28 22 be
       -0.0418324 -0.005543077 -0.012994908 -0.15835613
000360 6a ea 87 3b fe 66 4e be 77 3d 9f bc da fb 21 be
       0.0041478174 -0.20156476 -0.019438488 -0.1581873
000370 72 74 89 bd 04 78 b4 3c 4b 81 d9 3c 92 6e a0 bd
       -0.06711663 0.022029884 0.02655091 -0.078335896
000380 b0 fb e3 bd 92 0e 17 be b1 62 84 be db e0 84 be
       -0.1113199 -0.14751652 -0.25856546 -0.259528
000390 bd b2 36 3c 5b 27 cd bc e9 3a d7 3d 34 fb a0 bc
       0.011151013 -0.02504318 0.10509283 -0.019651033
0003a0 25 78 7f 3c 17 ef d1 3d e7 7c 2c bd 3b 48 97 3c
       0.0155926095 0.10250681 -0.042111304 0.01846706
0003b0 61 34 db bd 44 e4 be 3d 41 36 12 be 07 17 01 3d
       -0.1070335 0.09320882 -0.14278509 0.0315161
0003c0 51 f1 b7 bc 74 86 04 3c 89 ed 1e be 21 91 9c bd
       -0.022453936 0.008088697 -0.155203 -0.07644869
0003d0 81 78 c3 bd b0 a4 a5 3d 31 69 b9 bd ef 98 ac 3d
       -0.09544469 0.08088052 -0.09053267 0.08427607
0003e0 b5 83 09 bc b9 2f 19 3d 98 5e 88 bd 22 51 fc 3d
       -0.008393218 0.037399027 -0.06658667 0.12320162
0003f0 53 e6 da 3d e7 69 a4 bd e6 a0 68 3d 70 ed 0a 3c
       0.10688462 -0.08028012 0.05679407 0.008479461

network_body._body_endoder.seq_layers.2.bias f4 [128]
000000 39 33 67 3d 53 a5 07 bd 39 de 22 3d c9 a8 a8 3d
       0.056445334 -0.03311665 0.03976271 0.08235318
000010 a0 4c 94 3d dc 5d 85 3d a9 c6 41 3c 2d f9 80 3d
       0.072411776 0.06512043 0.011827149 0.062975265
000020 52 6d 71 bd 74 e6 e9 3c 28 46 07 bd e1 7a b9 3c
       -0.058942147 0.028552271 -0.03302589 0.022641601
000030 de e5 ed 3d c0 81 7b 3d 44 69 be 3c 76 a5 69 3d
       0.11616109 0.061403036 0.023243554 0.05704256
000040 bd 32 89 3b dc 7d 2a 3d d3 26 c7 3c d2 03 aa bc
       0.0041869567 0.041623935 0.024310505 -0.020753775
000050 f8 fa 62 3c 18 92 08 bc 5c 0d 62 bd 6f 1e a0 3d
       0.013853781 -0.008335613 -0.05518852 0.07818305
000060 04 f8 cd 3c 6e 67 29 3c 2e 65 5f 3d 1f a8 9f 3d
       0.025142677 0.010339601 0.05453985 0.077957384
000070 87 b8 4a 3d e9 86 23 3d 43 2f 71 3c 3c 20 1b bd
       0.049492385 0.039923582 0.014720741 -0.037872538
000080 f8 a7 93 3b 6b e8 96 3d 7d 8c 42 3a 67 13 c1 3c
       0.0045061074 0.07368549 0.0007421447 0.023568822
000090 24 15 6c 3d d4 48 64 3d 33 7b 21 3c 6b 2c 7a bc
       0.05763735 0.055733517 0.009856033 -0.015269379
0000a0 02 dc 79 3c 27 c9 2d bb 0b 01 0a 3c 03 c6 56 bc
       0.015250208 -0.0026517601 0.0084231 -0.013108733
0000b0 b3 30 22 3c 14 a8 66 3d ac 47 35 bc 9e 7a 0e bc
       0.009899306 0.056312636 -0.011064451 -0.008696226
0000c0 0f c3 f0 bc 49 72 b2 3d 7e 26 e6 3b 6b ae ce bb
       -0.029389886 0.087132044 0.0070236316 -0.0063074133
0000d0 0e 28 42 bd a7 99 cf 3c db 07 1e bc 5e aa 59 3d
       -0.04740148 0.025341822 -0.009645428 0.05314099
0000e0 d2 8f 23 3d f3 d5 f0 3c a5 60 21 3d 91 b6 c2 3a
       0.03993208 0.029398894 0.039398808 0.0014855434
0000f0 70 7e 0c 3d cc 2e 0b 3d df c3 0c 3d 36 ae 1f bc
       0.034300268 0.033980176 0.034366485 -0.009746125
000100 22 5c 99 bd 49 b6 f3 3b eb 87 8c 3d c2 f6 35 3d
       -0.07488276 0.0074375016 0.06861862 0.04442478
000110 30 73 ab 3d c1 73 1b bd 4d cd 96 3d 73 35 80 3b
       0.0837158 -0.03795219 0.07363377 0.0039126216
000120 d8 5c ee 3d 34 57 b6 3c 82 0d bf bc 18 73 5c b9
       0.11638802 0.022258379 -0.02332187 -0.0002102371
000130 a0 8b f4 bb 69 9a 72 3d 33 0c 6e 3d bf 75 1f bd
       -0.0074629337 0.05922929 0.058117103 -0.03893065
000140 15 f5 68 3d 3c ad 33 3d 3f 07 8f bc dd c6 1e 3d
       0.056874353 0.04386638 -0.01745951 0.03876387
000150 54 17 c2 bc 23 4a c2 bc 3c fc 59 3d 19 8a db 3c
       -0.023692764 -0.023716992 0.053219065 0.026799249
000160 ee d4 87 3c da 52 56 bd 28 40 75 3d 86 47 ac 3c
       0.016581025 -0.052325107 0.059875637 0.021030199
000170 38 af 01 bd 25 bb 64 3c d1 22 b7 3c ee 9a 6e 3d
       -0.031661242 0.013960634 0.022355469 0.05825322
000180 4a 33 4d ba 5e 2c dd 3d 51 83 02 3d 50 b4 39 3b
       -0.0007827772 0.10799478 0.031863514 0.0028336234
000190 8d 6f df bc f7 25 2e 3d 2a de 9c 3c e8 33 c8 bb
       -0.027274871 0.042516675 0.019148905 -0.0061097033
0001a0 b4 74 e8 bc 45 cf 0b 3d d6 85 e3 bc 01 10 0b 3d
       -0.02837596 0.034133215 -0.027773779 0.03395081
0001b0 59 55 1b 3b 87 12 24 3d ad c0 b5 3c df a5 28 3c
       0.0023701994 0.04005673 0.022186602 0.010293453
0001c0 40 86 90 3d 3f 7a 77 3d 4f d7 bc 3c eb 58 a9 3c
       0.07056856 0.060419317 0.023051886 0.020672282
0001d0 44 36 6d 3d 4c 56 94 3d 85 c8 67 bd c6 ab 57 3d
       0.05791308 0.07243022 -0.056587715 0.05265405
0001e0 d5 15 25 3d 3b 5f 76 bd a4 ab 1b 3d 11 da 97 bc
       0.040304024 -0.060149413 0.038005486 -0.0185366
0001f0 be 85 14 3d 68 ba 3e 3b a6 3c df 3b 10 40 d1 bc
       0.03626036 0.0029102806 0.00681265 -0.025543243

action_model._continuous_distribution.log_sigma f4 [1, 2]
000000 23 ab 23 be 9c 71 71 be
       -0.15983252 -0.23578495

action_model._continuous_distribution.mu.weight f4 [2, 128]
000000 5c 44 e3 3d 15 0f da 3c 3c 70 42 3c 3a 04 bf 3d
       0.11097023 0.02661852 0.011867579 0.09326978
000010 d8 bb e5 bd bf 3d 37 3d 49 d4 10 3c ed 5f a0 bc
       -0.11217469 0.04473662 0.008839675 -0.019576991
000020 da ea 88 3b 48 6f 67 bd ad 16 c3 3c 90 7f 8b 3d
       0.004178387 -0.05650261 0.023814524 0.0681144
000030 9d cf 93 3d ae 9e 79 3d e6 01 32 bd 6d f9 a7 3d
       0.072173335 0.060942344 -0.04345884 0.08201871
000040 32 d0 6a 3d c3 51 2b 3d 1e 5d 5d bc 8e 66 a5 bd
       0.057327457 0.04182602 -0.01351097 -0.080762014
000050 b8 d5 e9 3c 85 2e 6b 3d a6 b4 61 3c 73 19 09 3d
       0.028544292 0.05741741 0.01377598 0.033471536
000060 1b 2b 20 3d 2b df 84 bd b5 ad b2 3d f2 ae 90 bd
       0.03910361 -0.064878784 0.08724538 -0.07064618
000070 d2 cb f6 3c e2 74 e3 3c c1 29 c3 bd e6 13 23 bd
       0.030126486 0.027765695 -0.09529448 -0.0398139
000080 8a 68 98 3d a2 35 21 bd 77 ed d1 bb 9b b5 69 bd
       0.07441814 -0.03935779 -0.006406482 -0.057057958
000090 7e 0f c6 bd cb 60 80 3d d3 0e 20 bd e0 87 02 bd
       -0.09670924 0.06268462 -0.039076637 -0.03186786
0000a0 ed 19 89 bd 78 2a 1f bd e7 3d b4 bc d7 be 94 bd
       -0.06694398 -0.03885886 -0.022002174 -0.07262962
0000b0 8b 0c 7d bd 40 f7 5f bd 70 a7 01 3d 79 7c 3a 3d
       -0.06177954 -0.054679155 0.03165382 0.045528863
0000c0 1e a0 0d 3d 79 15 c1 3d 2f c6 76 bd 8e a0 44 3d
       0.034576528 0.09427924 -0.060247596 0.04800468
0000d0 df 81 2d 3d ad d7 06 3d c0 43 f7 bd 27 79 88 3d
       0.042360183 0.03292053 -0.12073469 0.06663733
0000e0 b0 7a 9a 39 ac 78 5b 3c 78 28 a4 3d 7e f1 21 bd
       0.00029464578 0.01339547 0.08015531 -0.039536946
0000f0 77 10 cb 3c 77 f3 7e bd 81 69 45 3d 44 f7 b7 3d
       0.024788124 -0.062243905 0.04819632 0.08982709
000100 c5 25 a3 3b f9 dc 4b 3d 79 da 5d 3d 33 f0 87 3d
       0.0049788677 0.049771283 0.05416343 0.06637611
000110 08 3a 84 3d 4a 44 01 bd ee 2d 9a 3d 7b 07 87 bc
       0.06456381 -0.031559266 0.07528292 -0.01648306
000120 22 21 05 3c 93 3b 19 bd a7 9c b7 bc 1e 33 ae bc
       0.008125575 -0.03741033 -0.022413565 -0.021264609
000130 59 83 bc 3c 0f 8a 79 bd 3e fa a0 bd 7c 27 60 3d
       0.02301185 -0.06092268 -0.0786023 0.054725155
000140 35 d6 9f bd 12 5e 56 bd 3c 05 a2 3c 34 a3 54 3d
       -0.078045286 -0.052335806 0.019777887 0.051913455
000150 a9 63 23 bd 52 34 0f ba 41 58 96 3d 1d d9 9d bd
       -0.039889965 -0.00054628134 0.07341052 -0.07707427
000160 a7 93 5d bd c0 c4 5e bc 91 6f 42 3d 09 fd 6c 3d
       -0.05409589 -0.013596714 0.04746968 0.0578585
000170 2d 7e a6 bd 31 f0 32 3d 8f f8 25 bd 1b e1 a1 bb
       -0.08129535 0.043686096 -0.040520247 -0.0049401647
000180 f4 49 3f bd 98 5b e9 bd 3b e8 96 3d 4f 64 7d 3d
       -0.046701387 -0.11394423 0.07368513 0.06186324
000190 6c 24 81 bc 29 cb 51 3c 1a 51 0c bd 22 c6 84 3b
       -0.015764438 0.012804785 -0.034257032 0.0040519396
0001a0 7e e1 01 3d b2 61 7a 3d 30 22 2b 3d 2d 3a 86 3d
       0.031709187 0.061128326 0.04178065 0.06554065
0001b0 17 81 59 3d a7 53 53 bd 06 77 81 bd 45 c1 37 bd
       0.053101625 -0.05159345 -0.0632153 -0.04486205
0001c0 48 be a8 3d 79 4a c0 3d e7 0a 91 bd 88 cb ef bc
       0.08239418 0.093892045 -0.070821576 -0.029271856
0001d0 d7 a8 f9 bd 20 68 b4 3d 88 13 05 3d 2a 1f 39 3d
       -0.12190407 0.08808923 0.03248933 0.045195736
0001e0 4b ef c9 bd d8 02 53 3c a7 4d df 3b 6e d8 fc 3c
       -0.09860095 0.012879096 0.006814677 0.03086492
0001f0 05 30 96 bd 44 1c 80 3d 7a 52 3f bd 3c 4a 22 3d
       -0.07333378 0.06255391 -0.046709515 0.039621577
000200 d9 70 67 3c d6 d1 df bb a5 da 6f bd 6c a7 77 3b
       0.014126026 -0.0068304343 -0.058558125 0.0037789
000210 bf 94 84 bd 6e 1b b7 3d a6 f4 d1 bc 27 4f a7 bd
       -0.064736836 0.08940779 -0.025629353 -0.08169394
000220 54 d9 bc 3c f9 67 1f bd db 8a f9 3c 89 c4 b6 bc
       0.023052849 -0.038917515 0.03046172 -0.022310512
000230 2c 9c 8c bd 4d de 0b bd 4f 2b 4a 3d 33 65 14 bd
       -0.06865725 -0.03414755 0.04935771 -0.036229324
000240 fa 03 bc 3c ca b0 b1 3c 3d 90 d8 bc ab 6d b8 bc
       0.022951115 0.021690745 -0.026435966 -0.022513231
000250 18 df 08 bc c8 99 8c 3c 9c 15 d2 3b 33 d7 64 bd
       -0.008353971 0.017163172 0.0064112674 -0.055869292
000260 e6 1a 91 3d 16 d0 ba 3c a6 a5 3e 3d 74 95 bf bd
       0.070852086 0.022804301 0.046544693 -0.09354678
000270 5a 32 24 bd af d7 94 3d 97 f3 24 bc b0 31 0b 3d
       -0.04008708 0.07267701 -0.010067842 0.033982933
000280 eb 85 3f 3d 0c 47 9c bd 65 87 f2 bc fa de a2 3b
       0.046758574 -0.076307386 -0.029605577 0.0049704285
000290 cb 4c 49 bd ba e4 7b bd 8a b7 f1 3c d1 eb 47 3d
       -0.0491455 -0.061497428 0.029506464 0.048808876
0002a0 c4 cd cb bc c3 85 88 3c 18 c4 91 3d e0 61 1f 3b
       -0.02487839 0.016665345 0.0711748 0.0024319813
0002b0 df 4e 81 3d 51 dc 85 bd 63 a4 4d 3d a5 ed 98 3c
       0.063138716 -0.06536163 0.0502056 0.018668005
0002c0 88 5b 34 3d af 0b 48 bc 1c 1b 90 3c e4 5e 6b 3c
       0.044032604 -0.012209817 0.017591052 0.014365885
0002d0 e1 56 49 bb 74 4d f6 3c 84 4a 18 3d 79 a9 bc bd
       -0.003072195 0.03006623 0.03718044 -0.09212012
0002e0 34 29 46 bd 8a 57 9f 3d c3 f7 03 3d 07 e8 90 bc
       -0.048379138 0.077803686 0.032218706 -0.017688764
0002f0 75 6e bf bc b7 b3 e4 bc ec 40 84 3d a3 43 55 3c
       -0.0233681 -0.027917726 0.06457695 0.013016614
000300 d4 a9 bb bc e2 1d e6 3c d1 1d 80 bd 87 11 14 ba
       -0.022908129 0.028090421 -0.06255687 -0.0005648364
000310 e3 87 af bd c4 f6 30 3c 8a 0c cb bc 49 53 3d 3d
       -0.0857084 0.010801021 -0.024786253 0.046222005
000320 c6 b2 f8 bd 86 a0 52 bd f5 2f 42 3d 61 99 39 3d
       -0.12143473 -0.05142262 0.047409017 0.04531229
000330 76 bc c0 bc b9 6f ea bc 80 db cf 3c 58 90 0f 3c
       -0.023527365 -0.028617727 0.02537322 0.008762442
000340 a4 71 54 bd 5a 17 91 bd c2 95 e0 bc 46 91 17 3d
       -0.05186619 -0.07084532 -0.02741516 0.037003778
000350 3f d2 14 3d 47 06 a6 bc 99 81 52 3c 07 ca fd 3c
       0.03633332 -0.020266665 0.012848281 0.030980123
000360 60 4f 2d 3b 01 51 4a 3d 7c ad 57 bc fa 63 13 3d
       0.0026445016 0.049393658 -0.0131639205 0.035984017
000370 cd cd c6 ba cd 2b 60 3c c0 09 00 bd 94 58 80 bd
       -0.0015167535 0.013682318 -0.0312593 -0.06266895
000380 00 02 4d 3d 03 5b 10 bc 62 b1 2c 3d 97 fc 6e 3d
       0.050050735 -0.008810761 0.042161353 0.058346357
000390 78 37 6b bc 42 1e 1c bd e8 4e 97 3d c3 db 80 3d
       -0.0143564865 -0.038114794 0.07388097 0.06291916
0003a0 85 d0 d7 3c bd 1c 9a bb 83 d3 0c 3d e3 cd 86 3c
       0.026344547 -0.004703133 0.0343814 0.016455596
0003b0 7b 76 39 3d ca 30 22 3d 2a e0 6c bd d1 be 06 bd
       0.045279007 0.03959731 -0.057830967 -0.03289682
0003c0 f9 6a 54 bc 89 61 b0 3a ea 02 0d 3d d0 67 11 bd
       -0.012964957 0.0013456802 0.034426607 -0.035499394
0003d0 4e 76 51 b9 9b 93 77 bc 5d dd 92 3c 78 05 3b bd
       -0.00019975865 -0.0151108755 0.01792782 -0.045659512
0003e0 07 a1 14 bd a2 0a 4b bc 55 38 17 bd d8 a0 b1 3c
       -0.03628638 -0.012392672 -0.036918957 0.021683142
0003f0 09 48 a1 bc e6 3f 21 3c 86 1c 9c bc 75 7b 96 3c
       -0.01968767 0.009841895 -0.01905657 0.018369416

action_model._continuous_distribution.mu.bias f4 [2]
000000 c4 7e 55 ba 0f 4d 06 bd
       -0.0008144195 -0.032788333
